model_training/face_detection_model2.tflite (tflite, 441336 bytes, 9 tensors)

arith.constant f4 [16]
00000000: 77bd d83b db05 a1bb 43b5 543c a57f b73b
00000010: 1311 bfbb 3b57 03bc d3ff 333c af64 8ebb
00000020: 0434 8abb 0d59 3bba efc7 683c db20 5fba
00000030: 32be d13b 2e71 9ebb 5e3b 6f3b 73f7 c5bb
0.006614383 -0.004914028 0.012982669 0.005599933 -0.005830893 -0.008016403 0.010986286 -0.0043454985
-0.0042176265 -0.00071467535 0.014207824 -0.0008511671 0.006400847 -0.0048352694 0.0036503891 -0.006041461

arith.constant1 f4 [16, 3, 3, 3]
00000000: 926d 55bb 5c41 093e 76a3 0c3e 9e20 dfbd
00000010: 8897 353d c229 90bd e590 003e 11c4 993c
00000020: 6200 063e 8627 28be 327c 983d 5649 bdbd
00000030: 6b4e eebc 41c3 1d3e 2315 8b3d 99e6 203e
00000040: 6d57 023e 656b c6bd f7ac df3d 5e11 98bc
00000050: 72df 313e 562e 22bd d8f4 30be 8f73 ad3d
00000060: a893 d4bd f60d 173e 4481 8d3d a2c8 29be
00000070: 3956 8bbd 9f87 abbd 5f22 043d e45b 2b3c
00000080: 8081 23be aa74 2c3e e1a4 123d 3d59 003e
00000090: d930 bb3b 0ddf 1fbe d39b 55bd 436d 27be
000000a0: 1e71 c33d 4f5a 52bc 936a cf3d d0f2 1b3d
000000b0: 8526 abbc d4e6 e53d d1f9 7e3d 915d 35be
000000c0: d7f3 983c f776 86bd d98d 75bd 54eb 0c3e
000000d0: f444 36be 38e6 c7bd 6d9f 1d3e d3d4 b23d
000000e0: 4198 073d 571b 263b 34ff a1bc 1046 483e
000000f0: d00c d1bd 364c 72bd 9957 ca3d cf8b 2d3d
00000100: 34a7 a1bd 93ba 1cbc 7fa1 29be f302 d03d
00000110: c8b1 56bd a5fd 593d 638f 29be 7a3f 13be
00000120: 34fb 7b3c c6cb 1bbe 463e 093d c4df 473e
00000130: ea7e e0bc a529 183e 7752 3f3c 7ee1 0a3d
00000140: 7bcd 8ebd 9ec5 d93d 0e5e de3d fc85 403e
00000150: 87c8 ca3d a30f 023e 9fc4 fbbd e39a 133c
00000160: 5832 d6bd 2dc8 6c3d 91ab 393e 6fbd 183e
00000170: b627 413e 995d 34bd 73d0 d73d 9ebd 663d
00000180: 5f37 3c3e ba93 2e3d a201 b63d 0464 c2bd
00000190: 1747 76bd d415 163d 5d59 cf3d 89c2 08bc
000001a0: 2dc8 1a3e e5a8 fdbd 9d35 86bd d87b 9abd
000001b0: 7817 1cbd f71b a1bd 7379 683d d00c 8dbd
000001c0: f1f3 04bd 565c 293b 8168 2f3e 8907 eabd
000001d0: 5805 27be e342 a1bd ec80 98bd 5058 a23c
000001e0: 82fe 113e 7236 08be 7d56 22bd a111 b3bc
000001f0: 83b9 05be dda2 32be 3fcb b03d 965b 93bc
00000200: 5236 873c b0b1 e93d fb55 62bd 9759 dc3d
00000210: 079b 1e3e 8784 d1bd 3e3e 93bd b5c3 d53c
00000220: c93d 1c3e 22ca 1dbd 5b53 a7bd f3c6 f0bd
00000230: 9458 d0bc 42c2 ecbd d1dd b4bd a62c 8c3d
00000240: 1f20 333e 9092 0dbe 43e4 0b3d 838d 13bd
00000250: c78e debd da10 45be 8fb8 e03d 0923 0bbe
00000260: d95d 723c 179f b33c 270c c73d bca7 be3d
00000270: 5fd7 3f3d f8a8 cdbd 393a 3abe 9fac e43d
00000280: 7a4e 963d 4c96 933b 7246 afbc 5623 5e3d
00000290: 341c 423d 337c 273e f734 40bd 6a46 c73c
000002a0: 3556 3e3e 0b66 2a3e 3d8e 1e3e 31a3 92bd
000002b0: 609e aa3d 0f86 b13d 9f1a d9bd a829 893d
000002c0: 9dc3 893d 62a8 b23d 8707 253e c1a2 19be
000002d0: 71dd 833d 00c5 4e3d 033c 9abd 2ec2 cdbd
000002e0: 9da5 63bd c57f 373e c69b 8c3d 5023 033e
000002f0: 13c7 453e 10a8 a6bc 238d 9cbd c03e 2f3d
00000300: 5b30 e9bd 020e 1dbd 88dd 843d f473 333e
00000310: 4c00 9ebd a013 5bbd 4420 0d3e 4999 013e
00000320: cac4 30be a2cf 30be cc78 1a3e afb4 2fbd
00000330: 1cea 0dbe 93da 173e d01c 88bd 2490 06be
00000340: ccb0 2bbe 5f6c 1f3e 5c74 86bd 1c17 cabd
00000350: 6300 bc3d b040 ec3d fbae b9bc ba60 1b3e
00000360: 2544 3e3d 372c f1bc bf1e e13d 78d1 86bc
00000370: 9630 47bc bede 933c 850f 343e 7682 eebb
00000380: 453e f5bb c365 37bd 1d54 5a3d 9939 46bd
00000390: e1d2 233b 4bb5 6f3d 02c8 933d efc6 8cbd
000003a0: 7526 323e 309c 773c 56b5 19be 1612 bebd
000003b0: 7410 30be e9ae 72bd 0686 8bbd a911 8b3d
000003c0: 52ff f7bc 4391 75bd f6d4 ef3d dd41 363e
000003d0: 0b5a 36be 6eb8 55bd 3e19 2fbe b91b 443c
000003e0: 5d18 55bd f66d 033e 8b76 1e3e 5c3b f53c
000003f0: 1f85 0a3e 156e 14be cf45 df3c 471e a13d
-0.003256653 0.13403839 0.1373423 -0.10894893 0.044333965 -0.07039215 0.12555273 0.01877025
0.13086084 -0.16421327 0.074455634 -0.09242503 -0.029090127 0.15406515 0.06791141 0.15712966
0.12728663 -0.09688453 0.10921662 -0.018562969 0.17370394 -0.03959497 -0.172809 0.08469307
-0.10379726 0.1475142 0.06909421 -0.16580442 -0.06803555 -0.08375477 0.03225934 0.01045892
-0.15967369 0.16841379 0.035801772 0.12534042 0.00571261 -0.15612431 -0.05215056 -0.16350274
0.0954306 -0.012838914 0.10127749 0.03807336 -0.020892391 0.112256676 0.062249962 -0.17711474
0.01867096 -0.065656595 -0.05994973 0.13761646 -0.17799741 -0.097607076 0.15392847 0.08731999
0.033104185 0.0025345886 -0.01977501 0.19557977 -0.10207522 -0.05915471 0.09879989 0.04236966
-0.078932196 -0.009565967 -0.16565512 0.101568125 -0.05241564 0.05322041 -0.16558604 -0.14379683
0.015379716 -0.15214452 0.033506654 0.19518954 -0.027404267 0.14859636 0.011677376 0.033906452
-0.06972786 0.106333956 0.10857783 0.18801111 0.09901529 0.12701277 -0.12293362 0.009009096
-0.10458821 0.05780809 0.18131854 0.14916013 0.18862805 -0.044034574 0.105378054 0.056333177
0.18380497 0.04262135 0.0888703 -0.09491733 -0.06012639 0.03664191 0.101244666 -0.008347162
0.15115424 -0.1238573 -0.06553195 -0.075431526 -0.03810832 -0.07866662 0.056756448 -0.068872094
-0.032459203 0.002584239 0.17129709 -0.114272185 -0.16310632 -0.07874086 -0.07446465 0.019817501
0.14257243 -0.13302019 -0.039633263 -0.021858992 -0.13059048 -0.1744494 0.08632516 -0.017988008
0.016505394 0.11410844 -0.05525778 0.107592754 0.15488826 -0.10230356 -0.07189606 0.026094297
0.15257944 -0.038522847 -0.08170196 -0.117566966 -0.025432862 -0.11560489 -0.088313706 0.068444535
0.17492722 -0.1382544 0.034153234 -0.036023628 -0.10867076 -0.1924471 0.10972702 -0.13587584
0.014792883 0.021926446 0.09719115 0.093093365 0.046836253 -0.10041994 -0.18186273 0.11165737
0.07339187 0.004504001 -0.021395896 0.054232918 0.047390178 0.16355972 -0.04692551 0.024325568
0.18587573 0.16640489 0.15483947 -0.071600325 0.08330989 0.08668148 -0.10600781 0.066973984
0.067267634 0.08723523 0.16116153 -0.15003492 0.06438721 0.050480843 -0.075309776 -0.100468025
-0.055577863 0.17919834 0.06865649 0.1280644 0.19314222 -0.02034381 -0.07644107 0.042784452
-0.11386176 -0.038343437 0.06487566 0.17524701 -0.077149004 -0.053485513 0.1378184 0.1265613
-0.17262569 -0.17266706 0.15085143 -0.042896923 -0.13858837 0.14829473 -0.066461205 -0.13140923
-0.16766661 0.15568684 -0.065651625 -0.09867689 0.09179761 0.11535776 -0.022666445 0.15173617
0.046451706 -0.029440029 0.109921925 -0.016457304 -0.01215758 0.018050548 0.17584045 -0.0072787357
-0.0074842297 -0.044774782 0.053302873 -0.048394773 0.002499752 0.058522504 0.07215883 -0.06873881
0.17397483 0.015112922 -0.1501058 -0.09280793 -0.17193776 -0.05924884 -0.06812672 0.06790478
-0.030273113 -0.059952985 0.11710541 0.17798562 -0.17807786 -0.05217784 -0.17099473 0.0119695
-0.052025188 0.12834916 0.15474908 0.029935531 0.13527344 -0.14495118 0.027254967 0.07867103

arith.constant3 f4 [64]
00000000: 96c6 c4bb fd6a 153c 2865 213c 0000 0000
00000010: 52c8 c4bb 1bbd c4bb c9b0 c4bb 4d8f 67bb
00000020: 14c8 c4bb 0000 0000 0000 0000 55c4 c4bb
00000030: 0000 0000 a907 193c 1809 233c 28c8 c4bb
00000040: 0000 0000 6b08 b6bb 74c8 c4bb f065 153c
00000050: 60c8 c4bb 0000 0000 d188 c4bb 3017 c138
00000060: f8c7 c4bb 04c7 c4bb 0000 0000 d689 153c
00000070: b66d 1f3c 7348 173c 02ca 153c 0000 0000
00000080: 4a7f 183c 0000 0000 67c7 c4bb b16d a4bb
00000090: 54c7 c4bb e0be c4bb 0000 0000 26df b5bb
000000a0: 6b37 31b9 fabe c4bb 75c8 c4bb 0000 0000
000000b0: 647c c4bb 1ae4 153c 1046 203c 38c6 c4bb
000000c0: ffc6 c4bb a6f2 253c 5aa4 c4bb 9aae c4bb
000000d0: 6951 1f3c 7cc6 153c 1ac8 c4bb 504b 243c
000000e0: b484 1a3c 0000 0000 fcc1 c4bb 9ae1 203c
000000f0: 2913 1a3c 7a8d 153c 4bc5 c4bb 32c8 c4bb
-0.0060051186 0.009119746 0.009850778 0.0 -0.0060053254 -0.0060039884 -0.0060025197 -0.0035333217
-0.0060052965 0.0 0.0 -0.00600485 0.0 0.009340205 0.009950899 -0.006005306
0.0 -0.0055552027 -0.006005341 0.009118542 -0.006005332 0.0 -0.005997755 9.207276e-05
-0.0060052834 -0.00600517 0.0 0.009127101 0.009730747 0.009233582 0.009142401 0.0
0.009307692 0.0 -0.006005216 -0.005017959 -0.006005207 -0.0060041994 0.0 -0.005550283
-0.0001690068 -0.0060042115 -0.0060053417 0.0 -0.005996274 0.009148622 0.009782329 -0.006005075
-0.0060051675 0.010128653 -0.0060010375 -0.0060022594 0.009724 0.009141561 -0.0060052993 0.0100277215
0.009431053 0.0 -0.00600457 0.009819413 0.009403982 0.009127969 -0.0060049645 -0.0060053105

arith.constant5 f4 [1, 64]
00000000: dbb8 d8bd b13b 843e c845 ce3d 4f64 6cbe
00000010: 5127 86be fa02 a6bc d3ae 43bc 1590 c8bc
00000020: 6820 55be 24bd 573e a074 683e 926a 5abd
00000030: 68fd 443d 9234 9f3d 5e8d 553e 79ac 61be
00000040: 461e 97bd ee1f 62be a8da 92be ab3f 953e
00000050: c2fa 87be c093 8f3b 37ef 1cbe 1b38 ce3c
00000060: 564f 47be 1f35 75be 7896 53be 81ca 283e
00000070: f651 f03d 69ea 9c3e fd15 c43d 688f e93d
00000080: 4de6 e63d 66eb 843e aaa4 0fbe 0e30 7abe
00000090: d4b1 19be 6bb6 c1bc aa00 073e 5477 41be
000000a0: 345e fbbd 5459 f3bc 6bcb 8ebe 32fc bbbd
000000b0: a255 febd 4d8d a93d 6904 3b3e 0b22 f3bd
000000c0: 9ee1 edbd 1b04 2e3e 9d8d 02bd b389 aebb
000000d0: a897 353e d03a c53d 13bf 91be b257 693d
000000e0: c87c c33d 9cc4 653e 7bf8 18bd 3db6 833e
000000f0: d1fd 9e3e 5fbc 213e b2a6 9ebd 20aa 6fbe
-0.105821334 0.2582679 0.100719035 -0.2308514 -0.2620187 -0.020265091 -0.011943537 -0.024482766
-0.20813143 0.21068245 0.22700739 -0.05332429 0.04809323 0.07773699 0.20854709 -0.2203845
-0.07378821 -0.22082493 -0.28682446 0.29150137 -0.265585 0.004381627 -0.15325628 0.025173238
-0.19463858 -0.23946045 -0.20662868 0.16483499 0.11734383 0.3064759 0.095745064 0.11404306
0.11274395 0.25960845 -0.14027658 -0.24432394 -0.15009242 -0.023646554 0.13183847 -0.18893176
-0.12273827 -0.02970568 -0.2788957 -0.09178962 -0.12418677 0.08278904 0.18263401 -0.118717276
-0.11615299 0.16993754 -0.031873334 -0.0053264736 0.17733634 0.09630358 -0.2846609 0.0569684
0.095452845 0.22438282 -0.037346344 0.25724974 0.31053022 0.15794514 -0.07746638 -0.23404741

arith.constant6 f4 [64]
00000000: 9fb0 60ba a742 3d3c 0000 0000 07fb ebbb
00000010: 2934 353c 48aa d73b eb0b 513c 9693 393c
00000020: d37a 9a3b f19e cbbb 6d4c 313c de12 273c
00000030: 0218 e33b b326 363c a845 313c 4c8a 613b
00000040: 20e8 2d3c 49f2 c3bb 3b1d 323c b1b9 3b3c
00000050: 9f53 263c eaa1 ccbb daba 15bc 0000 0000
00000060: e4a6 afbb b92e b63b d4d1 2e3c 67b3 443c
00000070: e3c7 303c f53f 673c 089f 1c3c f7ce 25bb
00000080: b5e5 cc3b d4ef 2e3c dc20 c4bb 35c0 ae3b
00000090: 3dab 0b3b fb5b edba ee03 803a 7b27 d6bb
000000a0: 9447 333c 0000 0000 9783 323c 71fb c93b
000000b0: 7438 f43b 587d c2bb 5690 fa3a 1708 d53b
000000c0: a3af c7ba 00b3 27bb f375 1f3c 54e0 343c
000000d0: 0000 0000 2ba4 dbba 223d 8f3b 729d 9ebb
000000e0: c53c c3bb c4b2 b1bb 6474 293c d6fd 463b
000000f0: 2633 d8ba 23b9 b1bb b088 3f3c 0337 2c3c
-0.00085712405 0.011551536 0.0 -0.0072015557 0.011059799 0.0065815784 0.012759189 0.011326691
0.004714349 -0.0062140157 0.010821444 0.010197369 0.006930352 0.011117625 0.01081983 0.0034414707
0.010614425 -0.0059798104 0.010871227 0.0114578465 0.010151773 -0.0062448876 -0.009138787 0.0
-0.005360471 0.005559769 0.010670144 0.0120056635 0.010789844 0.01411437 0.0095594 -0.0025300363
0.006252969 0.010677297 -0.0059853625 0.0053329715 0.0021311783 -0.0018109077 0.0009766796 -0.006535468
0.0109423585 0.0 0.010895631 0.0061640074 0.007453019 -0.0059353523 0.0019116502 0.0065012085
-0.0015234839 -0.002558887 0.009732711 0.011039812 0.0 -0.00167573 0.0043713013 -0.0048405463
-0.005958172 -0.005422922 0.010342691 0.00303637 -0.0016494736 -0.0054236813 0.011690304 0.010511163

arith.constant7 f4 [32]
00000000: 63cc 373c 0000 0000 472b 083b 751c cabb
00000010: dc11 fcbb 621f 12ba 7c18 a5bb 29e6 e13b
00000020: 58aa 733c c708 b03b a64b 2e3c 0000 0000
00000030: fd00 78bb cb67 703b 5805 c73a 6ac0 ed39
00000040: 179a 40b8 9a12 8abb 4abe 1eba 7a05 10bc
00000050: b04c da3b 0000 0000 be23 343c 978e 31ba
00000060: a589 d13b bc4d 1fbc 7112 b03b 8a53 06bb
00000070: b1aa 413c 6055 fcbb a2b1 2f3c fea4 f53a
0.011218163 0.0 0.0020777748 -0.006167943 -0.0076925587 -0.00055741344 -0.005038319 0.0068938923
0.014872156 0.00537214 0.010638153 0.0 -0.0037842386 0.003668296 0.0015184088 0.00045347522
-4.5919875e-05 -0.0042136433 -0.0006055577 -0.008790368 0.006661974 0.0 0.01099485 -0.00067732617
0.0063945823 -0.009723123 0.005373292 -0.002049657 0.011820481 -0.007700607 0.010723503 0.0018741188

tfl.pseudo_qconst i1 [64, 3, 3, 32]
00000000: 4427 b04d fd78 b588 4300 d22c 4f52 aed9
00000010: 1c98 0596 1d93 d003 d106 abe6 d230 0eb0
00000020: 57d6 90c8 52e9 a1c5 4c95 fcd7 a06d 6010
00000030: 0543 6d61 adb8 bde4 b70c 550c 3388 afdf
00000040: 07c8 469e 44e7 b2ba db44 583c 09ad 133f
00000050: d7c1 83fd 8d45 c2e2 694d ff58 a9c7 db1a
00000060: 0655 e09a ec34 5a17 6ede ec41 30f0 41b2
00000070: d4a4 0f43 3278 6797 5c9f 4aa6 2497 4dd8
00000080: 1192 def4 b6bb b00c 73f8 044c dbc4 3418
00000090: 07d8 2ca5 bf96 c157 3484 cfd2 12c6 57bc
000000a0: b609 2cb4 1f00 53a1 ac1e 954a 5c1b 5796
000000b0: 435e 018f 49ac 8ffd 2aa5 dd85 fb2b 3c81
000000c0: 6ab2 d800 ed63 a63a e361 53b6 2d59 0f0d
000000d0: 2ccd 728a c5ff b218 5d50 0530 af2b 5a50
000000e0: 6223 67f4 a36f 73aa 0d0d 953d 9264 7269
000000f0: 0629 cda4 6d4b d617 2132 5170 313b 2ce6
68 39 -80 77 -3 120 -75 -120
67 0 -46 44 79 82 -82 -39
28 -104 5 -106 29 -109 -48 3
-47 6 -85 -26 -46 48 14 -80
87 -42 -112 -56 82 -23 -95 -59
76 -107 -4 -41 -96 109 96 16
5 67 109 97 -83 -72 -67 -28
-73 12 85 12 51 -120 -81 -33
7 -56 70 -98 68 -25 -78 -70
-37 68 88 60 9 -83 19 63
-41 -63 -125 -3 -115 69 -62 -30
105 77 -1 88 -87 -57 -37 26
6 85 -32 -102 -20 52 90 23
110 -34 -20 65 48 -16 65 -78
-44 -92 15 67 50 120 103 -105
92 -97 74 -90 36 -105 77 -40
17 -110 -34 -12 -74 -69 -80 12
115 -8 4 76 -37 -60 52 24
7 -40 44 -91 -65 -106 -63 87
52 -124 -49 -46 18 -58 87 -68
-74 9 44 -76 31 0 83 -95
-84 30 -107 74 92 27 87 -106
67 94 1 -113 73 -84 -113 -3
42 -91 -35 -123 -5 43 60 -127
106 -78 -40 0 -19 99 -90 58
-29 97 83 -74 45 89 15 13
44 -51 114 -118 -59 -1 -78 24
93 80 5 48 -81 43 90 80
98 35 103 -12 -93 111 115 -86
13 13 -107 61 -110 100 114 105
6 41 -51 -92 109 75 -42 23
33 50 81 112 49 59 44 -26

tfl.pseudo_qconst1 i1 [32, 3, 3, 16]
00000000: 0a40 0cd2 8731 4ded c816 7970 10b6 ee12
00000010: 51fa e6d2 5b00 f1d1 a428 674c e857 0e4d
00000020: d577 f23e beb3 a85f d335 4e0e 5f47 0030
00000030: e024 1d30 9245 709c 01d4 2c33 3e97 bab6
00000040: 0f9c 7820 69aa 58d0 a86f ba4a 7256 e143
00000050: 7fcf 7dea ecf5 7d13 f624 53ae 9fb2 0bfa
00000060: 2659 c623 922d 32a8 0945 f5d3 55c0 215d
00000070: f25b a39a b00f 6da9 7b9b a96b 76ae 77e0
00000080: 22ce 46a8 6cef 795a 0614 4d15 6eea 457d
00000090: da28 6ddb a533 6a5c fdbf c6b2 84b7 671f
000000a0: 5066 9f9a 6d50 c74e 4e2f 2142 2497 4ece
000000b0: a91a b0a4 e9a1 16bb 71cb d961 6555 28aa
000000c0: 3f50 2435 0050 bdb4 e4a8 e037 2b15 038d
000000d0: b981 b5c9 4011 3949 40ab 8b2d 0e0e 02ca
000000e0: c53b e48e 19d2 c1c5 e375 d73f 4466 7809
000000f0: d2f9 1481 993b c2c6 1288 d0e7 b894 4a2b
10 64 12 -46 -121 49 77 -19
-56 22 121 112 16 -74 -18 18
81 -6 -26 -46 91 0 -15 -47
-92 40 103 76 -24 87 14 77
-43 119 -14 62 -66 -77 -88 95
-45 53 78 14 95 71 0 48
-32 36 29 48 -110 69 112 -100
1 -44 44 51 62 -105 -70 -74
15 -100 120 32 105 -86 88 -48
-88 111 -70 74 114 86 -31 67
127 -49 125 -22 -20 -11 125 19
-10 36 83 -82 -97 -78 11 -6
38 89 -58 35 -110 45 50 -88
9 69 -11 -45 85 -64 33 93
-14 91 -93 -102 -80 15 109 -87
123 -101 -87 107 118 -82 119 -32
34 -50 70 -88 108 -17 121 90
6 20 77 21 110 -22 69 125
-38 40 109 -37 -91 51 106 92
-3 -65 -58 -78 -124 -73 103 31
80 102 -97 -102 109 80 -57 78
78 47 33 66 36 -105 78 -50
-87 26 -80 -92 -23 -95 22 -69
113 -53 -39 97 101 85 40 -86
63 80 36 53 0 80 -67 -76
-28 -88 -32 55 43 21 3 -115
-71 -127 -75 -55 64 17 57 73
64 -85 -117 45 14 14 2 -54
-59 59 -28 -114 25 -46 -63 -59
-29 117 -41 63 68 102 120 9
-46 -7 20 -127 -103 59 -62 -58
18 -120 -48 -25 -72 -108 74 43

tfl.pseudo_qconst2 i1 [64, 6400]
00000000: 9729 2a10 54b4 478f e539 0c19 56aa e718
00000010: a05a 1bcd dff8 84f7 1798 359f 4817 139e
00000020: 38ab e71a 0ad2 43e0 c301 fef3 b0f6 9f0d
00000030: 4eee 99eb 4314 948d 3f9a e744 4f39 0391
00000040: 9cd5 edec f954 9c46 beb6 ccf5 46e2 1499
00000050: 392f 250d 0e8c 51a1 f38a 9d13 ad3a 9a34
00000060: b4d5 a006 c1aa 4d9c 28b2 044c e5c9 b899
00000070: 41f9 b922 672f a0ed 949e 444c 5412 32f6
00000080: 45a6 27f8 52f4 41e3 8de4 17e5 e11c a3c1
00000090: 5229 ad11 ae1c b4ee 894c 93b8 3322 412c
000000a0: a613 1e00 ec3b 3454 01c5 2f02 c223 be47
000000b0: f813 878c 1c3d a6ee 0aa0 9e42 badb f5d2
000000c0: cefb 212c 9e09 fda3 e202 4e2d 080d 1616
000000d0: 85f4 e216 0402 15a1 eb8a c046 31c8 faca
000000e0: ecbb e8c7 98f3 9142 f9a3 ea5f d623 3d58
000000f0: b8aa fb85 e31a 27fc a135 cc06 091a 3e48
-105 41 42 16 84 -76 71 -113
-27 57 12 25 86 -86 -25 24
-96 90 27 -51 -33 -8 -124 -9
23 -104 53 -97 72 23 19 -98
56 -85 -25 26 10 -46 67 -32
-61 1 -2 -13 -80 -10 -97 13
78 -18 -103 -21 67 20 -108 -115
63 -102 -25 68 79 57 3 -111
-100 -43 -19 -20 -7 84 -100 70
-66 -74 -52 -11 70 -30 20 -103
57 47 37 13 14 -116 81 -95
-13 -118 -99 19 -83 58 -102 52
-76 -43 -96 6 -63 -86 77 -100
40 -78 4 76 -27 -55 -72 -103
65 -7 -71 34 103 47 -96 -19
-108 -98 68 76 84 18 50 -10
69 -90 39 -8 82 -12 65 -29
-115 -28 23 -27 -31 28 -93 -63
82 41 -83 17 -82 28 -76 -18
-119 76 -109 -72 51 34 65 44
-90 19 30 0 -20 59 52 84
1 -59 47 2 -62 35 -66 71
-8 19 -121 -116 28 61 -90 -18
10 -96 -98 66 -70 -37 -11 -46
-50 -5 33 44 -98 9 -3 -93
-30 2 78 45 8 13 22 22
-123 -12 -30 22 4 2 21 -95
-21 -118 -64 70 49 -56 -6 -54
-20 -69 -24 -57 -104 -13 -111 66
-7 -93 -22 95 -42 35 61 88
-72 -86 -5 -123 -29 26 39 -4
-95 53 -52 6 9 26 62 72
